language-modeling/models/best_rnn_model.pth (torch, 655944 bytes, 7 tensors)

encoder.weight f4 [62, 256]
00000000: 2bb7 bb3e 8481 c8be c233 a9be fd3c e83d
00000010: 65f1 0ebd b75f 09bd 95ee d03b e1f9 153f
00000020: 3ca3 373c d97a 8c3c bbfd 4dbd d769 383f
00000030: 77b4 86be 4b6f 6f3e 812c 99bd 9b0e 4dbf
00000040: d1e7 c6bf c936 7b3f 98fb d5bd 1a00 503f
00000050: 08c3 513e e0cc 79be 7701 45be 5c2c a1be
00000060: 64b4 9bbf db31 c5bd 9ec8 a43e 3ca1 fd3d
00000070: 140a 4d3e 32f8 8f3d 949c a8be 29fc cabe
00000080: 206a 1ebe dd03 a3bd b24b 443d 5a28 a13e
00000090: 3482 673e a9cf c53e 2271 43be 95c0 923e
000000a0: 3024 0bbf 4c64 6b3c 173a 753e aeb1 853f
000000b0: 8b1a d93d 48b1 993f b12c 413e e9a9 9abe
000000c0: 318d 3e3e dc91 62be 7861 88bd 6bb4 b93e
000000d0: 0a2d e73e d30c 553e 8e66 64be 22c4 373d
000000e0: 3f34 d53a 8c0b 4abe 68c3 383f 1b59 24bf
000000f0: 4307 fcbe 6002 103f 4d44 673d c02c 9bbf
00000100: f2d3 233f 9d52 433f 5d17 8f3e 1370 cbbd
00000110: 2cc1 2d3e 907a 0ebf f7c6 2a3f d2e1 c53e
00000120: 74bd a53e b3f9 d6bc 9878 c9be f698 adbe
00000130: 0352 063f 93a7 b03e d858 98be 4666 13bf
00000140: 4ada 153f cccc 873e 92c5 96bd 1dd0 9e3f
00000150: b68d a5bf dfc6 843e f0fa bbbe 3ae6 9dbe
00000160: f42b fbbd 7abd 823e 896f 99be ff89 a2be
00000170: e3fe 173c 43a5 2dbe d9f0 4dbd 1bc9 cebe
00000180: 4e11 87bd 6e1d b13d 8e1f f83e 5af7 c13d
00000190: 9993 c53c 005f a0be e5eb d63d aac7 033e
000001a0: 1dfe 923d bdd6 9e3d cd92 c33e 1231 823c
000001b0: 9b48 8b3e 555c 803f c28d 213e f46d de3e
000001c0: ad4e 323f 8a7d 9b3e ef43 e0be c8bc 313e
000001d0: d463 963e 1b37 683d 1532 8b3e 208c a63e
000001e0: fb45 9e3e 7ebd 4dbe 747d aebe 55b4 64be
000001f0: bc6e d9be 3c8c a13e 0f7c e73e b825 0b3d
00000200: 179f 013d 123a ce3c 701c 313f 35b8 87bc
00000210: c7a8 513e a90a 37be 77d6 9e3e 0c7c 05be
00000220: 84ed 123e 9d14 dabe 14e7 b5be 60e4 643e
00000230: b4bc 0cbe 88a5 f33e d8bd 59be d3ed a83e
00000240: 743c 3bbe a42c b03d babb 17bf f0dc 583e
00000250: fb55 923e 0465 633e 8836 793f 4746 ab3e
00000260: e34a 53bd e19f 96bd 37a3 52be f44f 25bf
00000270: 074a adbe 524c 0abf 0f89 b2bf 4a21 dabe
00000280: 67a7 94bd b7ec 5c3f 9929 a7be 574b 873f
00000290: 61b1 15be c2d7 80bf fbed 83bd c7e4 bebd
000002a0: 1381 733f b5ea ebbe 0ee2 3abf e2d5 a23e
000002b0: f4a7 76bd 5498 cf3e 4f6f f9be 6623 dbbd
000002c0: 4346 c03d b003 40be bca0 0fbe 9d57 133e
000002d0: bca7 1f3e 66dc 503e 7722 55bf 2984 7bbf
000002e0: a82a d6be 305d 39bf 8880 363f 64eb 0bbd
000002f0: 83aa 3a3e 7563 98bb 5ec6 de3e 4d29 b6be
00000300: 4efa a93a 134f 8ebe b600 3dbe 6e56 f33e
00000310: 2951 643e a3af ecbe 580a 0fbf 5fcb 233f
00000320: eaad 84bf 2654 bf3e 4149 ce3e 06e0 a8bf
00000330: 5862 2ebd 324e 8fbf 3cb4 a43e 97d2 9fbe
00000340: 8ffa 89be e3b5 49bf 804a 993d bd58 4fbe
00000350: 2cb5 a53d 8f3e 59bd 1407 a7bd ac67 91be
00000360: fedc a6be c528 a33e 80ef 80be 6fc5 2c3d
00000370: b9af 27bd c856 a6be 206c 8bbf cbb9 83bd
00000380: 0a88 a03e 4026 d1bd 4af9 f3be 3387 c0bd
00000390: 805c 03bf cc1b 043d a5bb d7be 9c3e 873e
000003a0: 2d33 063e bd31 ae3e aab7 c6be 5fa9 50bf
000003b0: c410 78bf a4c4 babd 1c9f eb3e 3a1a 0a3f
000003c0: 5a67 8fbe 801a 05bf 4846 9b3a c9db 0fbb
000003d0: 8975 2a3f 6feb 963e c149 9bbd ed12 92be
000003e0: 676d 413f 6797 e3bd 498f e93e 02a4 f1bd
000003f0: cb1e d1be d20d 56bf 1921 64bf af3d 44be
0.36663184 -0.39161313 -0.330473 0.113397576 -0.03489818 -0.033538546 0.0063760974 0.5858441
0.011208352 0.017148422 -0.050290804 0.720365 -0.2630956 0.23382299 -0.074791916 -0.8010041
-1.5539495 0.9813047 -0.10448378 0.81250155 0.20484555 -0.2439456 -0.1923884 -0.31479156
-1.2164426 -0.0962865 0.3218431 0.12384269 0.20023376 0.070297614 -0.3293196 -0.39645508
-0.15470171 -0.07959721 0.04792375 0.31476098 0.22608262 0.38634995 -0.19086125 0.28662553
-0.5435209 0.014367174 0.23947941 1.0444849 0.10600766 1.2007227 0.18864705 -0.30207756
0.18608548 -0.22125953 -0.06659216 0.3627046 0.4515155 0.20805673 -0.22304747 0.04486478
0.0016266181 -0.19730967 0.72173166 -0.64198464 -0.4922429 0.56253624 0.05646162 -1.2123032
0.6399528 0.7629793 0.27947512 -0.09933486 0.1696822 -0.55655766 0.66709846 0.3864885
0.32371104 -0.026242113 -0.39349818 -0.33905762 0.5246889 0.3450285 -0.29755282 -0.5757793
0.5853621 0.26523435 -0.07361902 1.2407261 -1.2933872 0.25932977 -0.36714888 -0.3083971
-0.12264243 0.25535184 -0.29967907 -0.31745908 0.009277078 -0.16957574 -0.05027852 -0.40387806
-0.065950975 0.086481914 0.48461574 0.09471007 0.024118232 -0.3132248 0.10494212 0.12869135
0.071773745 0.07755802 0.38197938 0.01589254 0.2720383 1.0028177 0.15776733 0.43443263
0.696513 0.30369216 -0.4380183 0.1735717 0.29373038 0.056693178 0.27186647 0.32528782
0.30912766 -0.20091817 -0.34080088 -0.22334416 -0.42467296 0.31552303 0.45211837 0.03397152
0.03164586 0.025174174 0.6918402 -0.016567329 0.2047454 -0.1787516 0.31023 -0.13035601
0.14348418 -0.42593852 -0.3552786 0.22352743 -0.1374386 0.47587228 -0.21263826 0.32993945
-0.1828478 0.086022645 -0.59270823 0.21178031 0.28581223 0.22206503 0.97348833 0.33452055
-0.05158509 -0.07354713 -0.20570074 -0.64575124 -0.3384554 -0.54022706 -1.3948077 -0.42603523
-0.07258492 0.862987 -0.32648924 1.0569867 -0.14618446 -1.0065844 -0.064418755 -0.093209796
0.95118827 -0.46077505 -0.7300118 0.31803805 -0.060218766 0.40545905 -0.48717734 -0.10700111
0.09388401 -0.18751407 -0.14026159 0.1438889 0.1559133 0.20396575 -0.83255714 -0.98248535
-0.4182942 -0.7240782 0.71289873 -0.034160033 0.18229108 -0.004650528 0.43510717 -0.35578385
0.0012968273 -0.27794704 -0.18457302 0.47526878 0.22296585 -0.4622775 -0.5587516 0.63982195
-1.0365574 0.37368888 0.40290263 -1.3193367 -0.042574257 -1.1195738 0.32168758 -0.31215355
-0.26948974 -0.7879316 0.07484913 -0.20248695 0.080911964 -0.053038176 -0.08155647 -0.28399408
-0.3259048 0.31867042 -0.25182724 0.042180475 -0.040939067 -0.32488084 -1.0892372 -0.064319216
0.3135379 -0.10212374 -0.4765113 -0.09400787 -0.5131302 0.03225307 -0.4213535 0.26414955
0.1310546 0.34022322 -0.38812 -0.8150844 -0.9690058 -0.091195375 0.46019828 0.5394627
-0.28008538 -0.5199356 0.0011846507 -0.002195107 0.66585594 0.29476497 -0.07582427 -0.28530064
0.7555756 -0.11112862 0.4561713 -0.1179886 -0.40843806 -0.8361484 -0.89113003 -0.19164155

rnn.weight_ih_l0 f4 [256, 256]
00000000: e161 f33c 487e 233e e00b 5bbe e748 193f
00000010: 3046 993d 11c7 87be 29a8 393e e091 48be
00000020: bdde 3bbc d371 d43e 65c9 a639 9a28 a9be
00000030: dbf0 f8be c653 153e f078 7a3e b247 45bd
00000040: 3888 353f 96aa d93d 89f3 263e 68b9 75be
00000050: 5b08 18be d736 1cbe 805b 86bc f980 acbe
00000060: 4273 97bd a10a acbe 2a59 373e c988 e1bd
00000070: 371d 133e 4190 f1be 060f 04be f6b5 503e
00000080: 5492 ae3e 020a 293e b8c8 e7be 46cb c6be
00000090: bca6 19be 8c23 96be 8508 eb3d 4a83 663d
000000a0: 0c24 3f3d 8e12 37be 9a2a 483e a98e dbbb
000000b0: bfd0 db3e 0b3b 20bd 4a00 093f 524e 9e3e
000000c0: 97ac d43d a04d 353f 0672 73bd d70a a63d
000000d0: 0518 b8bd 565a 8e3d 5f89 1cbf d671 743d
000000e0: 4dcb 7fbd 297f 533e ddeb cc3e 10ce 263f
000000f0: 186b 393e 447b 3c3d ba2d fdbc d543 963e
00000100: 4f74 163f 2007 793e b8f5 9c3e 5ab3 123e
00000110: 319c 0abd ffdf 1bbe 07a4 353e cb5d 493e
00000120: 115f b5bc c73e b23e ff7d aa3e ffc3 613a
00000130: 63aa 39bc 77e0 91bd 7f0d 073f 9ac6 48be
00000140: d336 ae3d fae5 d1bd 4c59 863e a618 26be
00000150: 091f aebe f3f3 083d 8971 01bf 7172 6b3e
00000160: 3087 e03d 33d2 a03e 3b56 2fbd 2664 8b3d
00000170: 1c1c be3c 9fbd b0be 11a7 debd f54f 9dbe
00000180: 8250 f13c 3ec3 82be 85f4 a13e 3cae 48be
00000190: 9667 ed3d 0578 b6be 5509 8a3e 9974 563e
000001a0: 7f0c d8bd af78 1cbd e19a cabe d17a 613e
000001b0: 45e8 f03d 759e 463e d6d2 86be 32da a73e
000001c0: 03af 7dbe ee88 b0be 1b53 eaba f8c7 3abe
000001d0: 86be 35bc 3bd4 8fbe c894 3dbe a5bc 74be
000001e0: 0d7e 1dbf 377f c1be 58a3 0e3e 8f36 cabc
000001f0: b1d3 523e 7439 24be 3c41 2f3f e0e3 843d
00000200: dc14 fabc 8b28 0ebe 2403 40be 4d0e 45be
00000210: 8e65 c2be 9fc6 a6be 6bb0 223e 5483 123e
00000220: 52db 0f3e db23 b93e 8179 2bbe b5c1 cabd
00000230: 9b70 833e 620a d4bd bd6c fbbd 6fb4 fb3e
00000240: 349c 3dbe 5150 41be ec91 6ebe 1370 aebd
00000250: ad7d 083e 9792 163f 4107 2b3e a6d7 9abe
00000260: 2dc0 bfbd 3e30 a93e 2593 133d a899 d23c
00000270: 0ab6 06bd 3cd5 cd3e 26bb f93e 37e1 f2bb
00000280: 6cb6 36be b2f0 c9bd 3c12 33be e075 ee3d
00000290: d95b 033f dcbd 8ebe 56e9 88bd 22fb 9dbd
000002a0: 3daf cbbe d709 df3e 5e89 ed3e 6c09 a3be
000002b0: 00d9 9bbd 9c66 8f3e f191 f7be 4eba 453e
000002c0: 7682 5c3e 3339 b23d db74 9ebe 34f0 1fbe
000002d0: a9da 013f 9703 01be 4527 ca3e 918c 3e3e
000002e0: 6088 ab3d d6b7 6a3d d6d8 463e ecd8 2fbf
000002f0: ec50 ed3e b41f 03bd b3b1 f23e 3a29 c33d
00000300: a97b bebe 145e af3e e4a7 063e 58e7 8fbe
00000310: 8f6b aebe da6f aabb dd4c 4b3e 8575 393e
00000320: c6d9 2fbe ab31 0ebe 481a 07bf e616 6b3d
00000330: 7f9f 8d3e 2f1c 80bd 9dd9 47bb 6891 10bf
00000340: 3475 f4be 67b8 04be 7d59 1bbe 4e0e 5ebe
00000350: 3316 1f3d 7b70 423f 12bb bdbd 758c 0d3f
00000360: 3368 013d d83b c63d 4750 e0bd d4ea 57be
00000370: a7a5 633e 8621 dcbd f586 dd3e 9fe8 a03e
00000380: e0f4 a0bd a635 48be a016 583d 93c8 06bf
00000390: c645 aabd f516 8bbe 0ff7 c03e a508 cd3e
000003a0: 44d7 ebbe 51da 45bc 9bb6 b6bd 15bd 06bf
000003b0: 8637 0fbe e9ff 643b 5c7a c9be 8e43 bf3d
000003c0: 9fdf 673e 8766 f7bd 022d 06bd e58c c2bb
000003d0: 5843 dc3e a295 9cbd a570 6d3e a393 ef3e
000003e0: a860 ec3d 2c96 77be 8829 c9be 6032 e9bd
000003f0: c3fb 10be de9c 0bbd 1fb7 a93e bade f7be
0.029709758 0.15966141 -0.21391249 0.59876865 0.0748409 -0.26519063 0.18130554 -0.19586897
-0.011466679 0.4149309 0.00031812038 -0.3303879 -0.48621258 0.14582738 0.24460196 -0.048164077
0.7091098 0.1062824 0.16303839 -0.23996508 -0.14846937 -0.15255295 -0.016401052 -0.33692148
-0.073950306 -0.3360186 0.17905107 -0.11012418 0.14366613 -0.4718037 -0.12896356 0.20381913
0.34096014 0.16507724 -0.45270324 -0.3882696 -0.1500501 -0.29323995 0.11476234 0.05627755
0.046665236 -0.17878172 0.19547501 -0.006700356 0.42932698 -0.039118808 0.53516066 0.3091913
0.103844814 0.7082157 -0.059434913 0.08107536 -0.08988956 0.06950824 -0.6114711 0.059678875
-0.062449742 0.20653977 0.400237 0.65158176 0.1810726 0.046015993 -0.030905593 0.29348627
0.5877122 0.24319124 0.3065622 0.1432623 -0.033840362 -0.15222166 0.17738353 0.19664685
-0.022140058 0.3481352 0.33299252 0.00086122745 -0.011332127 -0.071228914 0.5275497 -0.1960701
0.08506551 -0.10248943 0.26240003 -0.1622034 -0.34008053 0.033435773 -0.50563866 0.22992875
0.10963285 0.3141037 -0.042806845 0.06806211 0.023206763 -0.3451967 -0.10871709 -0.30725065
0.029457334 -0.25539583 0.31631866 -0.19597715 0.11592023 -0.35638443 0.26960245 0.20942916
-0.105492584 -0.03820103 -0.39571288 0.22019507 0.11763052 0.19396384 -0.2633273 0.32783657
-0.24773793 -0.3447947 -0.001787755 -0.18240345 -0.011092788 -0.28091606 -0.18513787 -0.23900087
-0.61520463 -0.3779237 0.13929498 -0.024684219 0.20588566 -0.16037542 0.68458915 0.06488776
-0.030527525 -0.13882653 -0.18751198 -0.19243737 -0.37968105 -0.3257341 0.1588761 0.1430791
0.14048508 0.36160168 -0.16745569 -0.09900228 0.2567185 -0.10353543 -0.122765996 0.49161097
-0.18516618 -0.18878295 -0.23297852 -0.0851747 0.13329192 0.5881743 0.16701986 -0.30242652
-0.093628265 0.33044618 0.036029 0.025708035 -0.03288845 0.40201747 0.48775595 -0.0074121016
-0.17843026 -0.09860362 -0.17487425 0.116435766 0.51312023 -0.27879226 -0.0668513 -0.077139154
-0.39782134 0.43562195 0.46393865 -0.31843126 -0.07609749 0.28007972 -0.48353532 0.19309351
0.21534142 0.08702316 -0.3094853 -0.15618974 0.50724274 -0.12599026 0.39483085 0.1860831
0.08375621 0.057304226 0.19418654 -0.6869037 0.463508 -0.032012656 0.474012 0.09529348
-0.3720372 0.34251463 0.13149983 -0.2810619 -0.34066436 -0.005201322 0.1985354 0.18111236
-0.17172918 -0.13886134 -0.52774477 0.057394885 0.27660748 -0.062553756 -0.0030494698 -0.5647187
-0.4774567 -0.12960969 -0.15170856 -0.21685144 0.03883953 0.7595288 -0.092641965 0.55292445
0.031593513 0.09679383 -0.10952812 -0.21085674 0.2223116 -0.107485816 0.43267027 0.31427476
-0.07859206 -0.19551715 0.052755952 -0.526498 -0.083140895 -0.27165952 0.3768849 0.40045658
-0.46062672 -0.0120759765 -0.08921548 -0.52632266 -0.13986024 0.0034942573 -0.39351165 0.09339057
0.22643898 -0.120801024 -0.032757767 -0.005937206 0.4302013 -0.07645728 0.23187502 0.46792325
0.11541873 -0.2417838 -0.39289498 -0.113865614 -0.1415854 -0.034085147 0.33147523 -0.48412114

rnn.weight_hh_l0 f4 [256, 256]
00000000: 30d3 f73c b605 133f 6fa6 bfbe 4e16 71bd
00000010: 58c2 9a3e f5ee 143e fa7f 173e c370 6bbe
00000020: fcc1 74bd 75a4 e13e 615a 8d3e 065c c83b
00000030: 7a7b aebd 29ec 6f3e 7f79 bd3e ad33 8abe
00000040: c464 273e c0a1 b63d f363 b3bd 52d9 043e
00000050: c9a5 43bc 674c 31be 7b2b 4eba 8074 45be
00000060: a496 1cbe 470e 3f3e 1751 72bc 00d8 943e
00000070: 2c61 7b3e 3ef6 05be abb5 d63e 2cf6 6fbd
00000080: b467 c53e 9a84 653d fe9a 6dbd 3c69 823d
00000090: 1740 603e 51fe d33e daec 893c 5d51 5fbd
000000a0: 1708 0d3e 4bb6 1d3e 87c2 0bbf 564e 083e
000000b0: e98f 7c3e 4a6c 843d 8b84 ab3e 240f 6c3e
000000c0: e917 193d a2c1 87bd 3bb5 b5be 879a d6bd
000000d0: d1ed 39bd 9472 fcbd 6428 4e3d e792 debd
000000e0: b49f f53d 029c b93b b743 ee3e 56b6 acbe
000000f0: 8ab5 65bd e496 a9be a543 0f3f d725 fcbd
00000100: 5186 b5be c54c 61be 4afa afbc eb15 aebd
00000110: 6e45 29be 9faa 263e 806b 2c3e e881 f13d
00000120: ba55 f33d 933c 30be e8c6 ebbd b857 e33d
00000130: ccfd dfbe 3f1b 033e e1ab 56be da81 2a3e
00000140: eb21 073d 4ef3 2a3e 5581 c3be 82b0 93be
00000150: b0bf 7c3e 95f6 5e3e d85e 003e d061 d7be
00000160: eac7 fabd fd64 31be 019a 8f3c efce aebc
00000170: ad12 8abe e4fa 95bd d9b1 dc3e 7cac f7bb
00000180: 3564 1dbf 333b acbe a22b 2f3d 16aa 683e
00000190: 9b73 35be 5743 c7bd f108 9cbe 3a73 2abe
000001a0: 13f3 f2be 794a 7b3c 8c5b 873c b36c 3ebe
000001b0: aa68 98be b99e 523d 6deb 923e 8aec 60bf
000001c0: d3fa be3c 5fd3 cc3d 806c 87be da45 ffbe
000001d0: 1f30 5bbe 0bb2 bd3e 13e6 4fbd fba8 01bf
000001e0: 4201 753a 463d 603e 647a 87bd 0a58 b03d
000001f0: 0fc5 c8be 127a a2be d710 bdbe 21e1 5c3e
00000200: 6b3d 50be 63bd 303e 6654 473e 59a7 8d3d
00000210: 8f5c 46bb e1c7 e8be 35e3 5bbe fdcd 74bb
00000220: c5d6 b6bc 6489 7abe 4e64 f73d 2e33 053e
00000230: 6e64 bdbe e49c febc 25a9 b3be 2d77 44bd
00000240: 02bb 5abe 8c0b 96be 2e30 8a3d c375 5abd
00000250: 9425 20be 5bed b03d 8afb fdbd f31f 86be
00000260: 91da 613e 5f46 c4be 87c2 6c3e 1dc5 9c3d
00000270: 08bf f8be 4d97 93be 86da 11bd efc1 9f3d
00000280: be7a b1be 13f9 a53d df0a 2fbe 2270 ff3d
00000290: d381 1cbd ea30 b2bd 2e7f 92be 0280 9d3e
000002a0: 458c 133c eb5e 4abe 726a c9be dc1b 8dbe
000002b0: b5d5 8cbd be08 193d 17d7 94be 936c b3bd
000002c0: 78de 063c c10e 99be 67af dbbd 1280 06be
000002d0: b9c0 45be 4713 883e c072 afbd 84d4 f13d
000002e0: 5ded 7abd 7396 2ebe eb57 9a3d d8eb e43d
000002f0: 8220 a4be 35ff abbe 4c99 8e3e 4eff 1f3d
00000300: 2e41 813e 9ddf f8bd a874 82bd 6bd4 403b
00000310: b70d fb3d 75fb 703e 4b40 f23d 948f 0ebf
00000320: edcd 8dbe 679d 12be 19d1 fdbd 5637 f0bd
00000330: 1b08 323d 570a 883e db0a 1d3e 3c75 57bd
00000340: 6435 793e 3f59 04bf dde9 873d 685f 7f3d
00000350: dad5 143e e7af aabe 92f9 173e 6260 483b
00000360: ec81 67be 93d9 f3bd d272 34bf 72c8 bc3d
00000370: 7b4d 9f3d 15a3 cd3d d524 4e3e 254b 29bd
00000380: e613 9a3e 379e 573e a197 a43d 9a83 173c
00000390: 2657 663d fb56 2f3e d663 243d 6e2c 6c3e
000003a0: 461e 1d3e 72c1 2d3d db48 37be e826 a23e
000003b0: f305 f93d 7190 773e 9888 bcbe eb57 babe
000003c0: dcee ebbc 9aac a2be 5a52 1d3d edb9 8c3e
000003d0: c5bd 1bbd db16 62be d35c 37bd 346d 213b
000003e0: e6be 18be 3b51 e83e dd2c 90bd c5b2 2f3f
000003f0: 22bc 28be 61d4 49be 80ef 003e e8f8 513e
0.03025207 0.5743059 -0.37431666 -0.058859162 0.30226398 0.1454428 0.14794913 -0.22992234
-0.05975531 0.44070783 0.27608016 0.0061144857 -0.08519645 0.23429932 0.37006757 -0.2699255
0.16347033 0.0891757 -0.08759298 0.12973526 -0.011941382 -0.17314301 -0.00078647555 -0.19282722
-0.1529184 0.1865779 -0.014789841 0.29071045 0.24548787 -0.13082215 0.41935477 -0.058584377
0.38555682 0.05603466 -0.05800914 0.06367728 0.21899448 0.41404966 0.016836572 -0.054520953
0.13772617 0.1540157 -0.545937 0.13311133 0.24664272 0.06465967 0.3349956 0.2305265
0.037376318 -0.066287294 -0.3548983 -0.104786925 -0.045392815 -0.123265415 0.05033149 -0.10867863
0.119933516 0.0056643495 0.46536037 -0.3373286 -0.056081332 -0.33122933 0.5596259 -0.12311905
-0.35454038 -0.22001942 -0.021481652 -0.08500274 -0.16530392 0.16276024 0.16837883 0.11792356
0.118815854 -0.17210607 -0.11512548 0.111007154 -0.4374832 0.12803362 -0.20964004 0.16651097
0.03299133 0.16694376 -0.3818461 -0.28845602 0.24682498 0.21773751 0.1253618 -0.42066813
-0.12245162 -0.1732368 0.01752949 -0.021338908 -0.26967373 -0.07323244 0.43104437 -0.0075584035
-0.6148103 -0.33638915 0.04276622 0.22721133 -0.17719881 -0.09729641 -0.30475572 -0.16645518
-0.47451076 0.01533758 0.016523145 -0.18596153 -0.29767352 0.0514209 0.2869524 -0.8786093
0.023312962 0.10001253 -0.26449966 -0.4985798 -0.21405075 0.37049899 -0.050756525 -0.5064847
0.0009346196 0.21898374 -0.06615141 0.08610542 -0.39212844 -0.31733757 -0.3692691 0.21570255
-0.20335929 0.17259745 0.19465789 0.06916685 -0.0030267572 -0.45464996 -0.21473391 -0.0037354224
-0.022319207 -0.24466473 0.120796785 0.13007805 -0.36990684 -0.03108067 -0.35089985 -0.047965217
-0.213604 -0.29305685 0.06747471 -0.053334963 -0.15639335 0.08639022 -0.12401493 -0.2619625
0.22056033 -0.3833494 0.23121081 0.07654784 -0.48583245 -0.2882637 -0.03560879 0.07800662
-0.34663957 0.08104148 -0.1709399 0.124725595 -0.038209748 -0.08700736 -0.28612655 0.30761725
0.009005611 -0.19762771 -0.39339024 -0.27560318 -0.06876699 0.037361853 -0.2907035 -0.08760943
0.008231752 -0.2989407 -0.10726815 -0.13134792 -0.19311799 0.26577207 -0.08566809 0.11808112
-0.061261524 -0.1704958 0.075363 0.11177796 -0.32056051 -0.33593145 0.2785133 0.039061837
0.2524504 -0.12152026 -0.06369907 0.0029423486 0.12258475 0.23533423 0.11828669 -0.5568783
-0.2769617 -0.14317857 -0.12393398 -0.117293045 0.04346476 0.2657039 0.15336172 -0.052602038
0.24336773 -0.5169868 0.06636403 0.062346846 0.14534703 -0.33337328 0.14841297 0.0030575027
-0.22608155 -0.11906733 -0.704877 0.092179194 0.0777845 0.10040871 0.20131238 -0.04133143
0.30093306 0.21056448 0.080367334 0.009247685 0.056235455 0.17123024 0.040134273 0.23063824
0.1534358 0.042420812 -0.17898886 0.31670308 0.12159338 0.24176194 -0.36822963 -0.363952
-0.02880042 -0.3177231 0.038408615 0.274856 -0.038022775 -0.22079031 -0.04476626 0.002463174
-0.14916572 0.45374474 -0.07039807 0.68632156 -0.16478017 -0.19709922 0.12591362 0.20505106

rnn.bias_ih_l0 f4 [256]
00000000: a335 aabe 375e 5f3f afec d4be 6c2c 12bf
00000010: 0f4d ba3e a39a 173d 608c fa3d 8f2c 1f3f
00000020: 32ef babe 02db 7e3e 9c9f fa3d f699 a8be
00000030: 4e25 2b3f c076 0abe 3ebd b4bd e4f5 d1be
00000040: 0c8d 05bd 8552 8ebd 6a68 81be 9061 b8be
00000050: 6f1b 143f ebb8 243e a929 d03d 7edc e7bc
00000060: 5745 843e 51d9 8f3d 89eb 533e c15b 083f
00000070: 4459 2f3e e0ec 733e b333 1bbd 2430 0a3f
00000080: 39be 843d f17d 22be 28e3 923d 5ccf 143f
00000090: 0592 fabe 8beb a3be c7db 543e bb1d 8bbe
000000a0: d48e 403e 4430 e23e e835 f23e 4a01 933d
000000b0: ad69 a93d 823d 173e 5073 31be 95ce cb3e
000000c0: da9f c23c f681 543e 8ff1 b1be 0ddc 71be
000000d0: e520 ed3e df7e 16bd 49c6 4fbe cbd7 f3bd
000000e0: 9e27 1d3d 7832 9e3b 3f95 cb3c 1605 ccbd
000000f0: 0f96 fb3d 7427 aa3e d391 a7bd 10a8 83be
00000100: 334a fe3e 6b75 69be 0629 2fbd 0864 60be
00000110: 10c7 c53e ba2f 2e3d bed1 46be ebd9 08bf
00000120: 4717 823e 7bd1 393d e963 88bd bfbc 0bbe
00000130: 2510 3a3e de2c a1bd feae 8a3e dbbf 01be
00000140: 61d2 8d3e 79c7 10bd ecac f33e eda6 403e
00000150: bf14 37be 9c9e 753e cc56 df3d 0b12 9ebe
00000160: 5991 d43d cb80 d9be 4454 39be 8134 c73c
00000170: 3f4e 41bf 64ab 5abe 249f f73e 2cf3 87be
00000180: feed d33d b97c 78be f91c 4ebe 44b8 20bf
00000190: e0cd a63c 442e e3bd e4f2 bfbd 5900 16bf
000001a0: 8efb 9dbd f5f8 b83e bfe3 ed3d 6a35 083d
000001b0: 4fab 243e 3708 173d 2e99 f03e bff7 053f
000001c0: 3563 99be 8e59 16be ac12 24be dc0e 8c3e
000001d0: 64d0 11bc b4c4 91bd 12d6 143c 3d0c 45bd
000001e0: 99ce 4abe 526a 133e 8cb6 b83e e98b 1bbf
000001f0: da1d 40bd bb70 4a3e 6a67 2d3e 3694 3e3e
00000200: 06cd ccbd 90ad 423e bb8b ebbd b822 f4bd
00000210: a3b9 573d 2096 91be f5e3 123f 62ce 92be
00000220: 8e89 2abd c545 253c e8c6 f6be f794 373e
00000230: 79fa 21bf 5586 e93d 86b5 4bbe 28a7 e53e
00000240: 12f8 663d b27c 333f edf7 173d 23d8 873d
00000250: 367f d93e 2fe4 943e ea35 b0be 1102 09bf
00000260: 71ab 203b 9b38 f2bd e15f 0b3e b66f 163e
00000270: 414e acbe 0032 3c3e d684 5a3f 701c 4c3e
00000280: c8bf 2dbe 15ef a7bd 00e0 41be c4fd 98be
00000290: a351 99bc 1cf4 4fbe 0df3 89be 3a4c a6be
000002a0: b93a 19be f0b1 e63e 9a8f 1dbe 7834 70be
000002b0: 8ae9 f43e 33f8 27be e151 5dbd 4809 a13d
000002c0: 50e4 f13c cf75 b33c 09ec 253e 43ce 913d
000002d0: 2f65 6bbe e651 0abd dda5 5abe 16d1 e7bd
000002e0: 660d 21bf da9b 73be 018a c2be 7e86 f9bd
000002f0: b112 683b 4495 71be d735 d93e 7f07 d8be
00000300: ef63 eebe d062 da3d c5ff 00be 5da5 89bd
00000310: f50d 70be 3a65 8ebd 5c76 bbbe 71f7 8b3e
00000320: 0b4c 713e faaa bebe 68dc 0fbe 2c08 743e
00000330: 139c 58be 288d ce3e 098d 3e3e cdfc 5fbe
00000340: c940 1b3e 9b55 503e 0fa9 31be 4b50 723e
00000350: e4ee 103c 1ca8 bfbe bad4 3c3e 8533 7bbe
00000360: 33d1 4a3e 7f33 aabe dfe9 863d 0964 c4be
00000370: 2e54 b9bd 453d 94be 8ecc 28bf f463 30be
00000380: 1d75 bbbe 4e4f c13e fceb 523e f64d a5bd
00000390: e1a0 9bbe 0356 f23e 260c 3c3e b384 47be
000003a0: e844 70be 9b09 c1bd c891 85be 2245 7e3e
000003b0: 66c0 1e3f 9043 9f3e f37a 813e 6bd8 d5bd
000003c0: 9a65 1dbf 04e7 b43b cbb7 f4be 6925 7f3e
000003d0: f8a5 ac3d c71f 2bbd a7e4 8a3e 59f7 043d
000003e0: c77e 913c 2aff acbd d221 a0be 4818 343e
000003f0: b978 a53e f8c3 4d3d 38ba c43e 8bad a03e
-0.33244047 0.87253135 -0.41586825 -0.5709903 0.36386916 0.037012707 0.12233806 0.62177366
-0.36510617 0.24888232 0.12237474 -0.32929963 0.668538 -0.13521862 -0.088251576 -0.41007912
-0.032605216 -0.06949333 -0.25274974 -0.36011934 0.5785436 0.16086166 0.10164196 -0.028303381
0.25834152 0.07023872 0.20695318 0.53265005 0.17123896 0.2382083 -0.0378911 0.53979707
0.064815946 -0.15868355 0.07172233 0.58128905 -0.4893953 -0.32015643 0.20786963 -0.2717112
0.18804485 0.4417745 0.47306752 0.0717798 0.08272109 0.14769557 -0.17329144 0.39806047
0.023757864 0.20752701 -0.34754607 -0.23619099 0.4631416 -0.036742087 -0.20290484 -0.119063936
0.03836786 0.0048277937 0.02485144 -0.099619076 0.12284481 0.33233225 -0.08182111 -0.2571416
0.49665985 -0.22798698 -0.042763732 -0.21913159 0.38628435 0.042525984 -0.19415948 -0.53457516
0.25408384 0.04536579 -0.06659681 -0.1364622 0.18170221 -0.07869886 0.27086633 -0.12670843
0.2769957 -0.035346482 0.47592866 0.18813677 -0.17879008 0.23986286 0.10905227 -0.3087314
0.10379285 -0.42481074 -0.18098551 0.024317028 -0.7551002 -0.21354443 0.48363602 -0.26552713
0.10348128 -0.24266328 -0.2012824 -0.6278117 0.02036184 -0.11092809 -0.093724996 -0.5859428
-0.07713996 0.3612744 0.11615705 0.033254065 0.16080974 0.03687307 0.46991867 0.52331156
-0.299585 -0.146826 -0.16022748 0.27355087 -0.008899782 -0.07117596 0.009084241 -0.048107374
-0.19805373 0.14396027 0.36076772 -0.6076036 -0.04690347 0.19769566 0.1693398 0.18611225
-0.100000426 0.19011521 -0.11501261 -0.119206846 0.05266727 -0.2843485 0.57379085 -0.28673083
-0.04163509 0.010087435 -0.48198628 0.1792792 -0.63272816 0.11402575 -0.19893464 0.44854093
0.056388922 0.70112145 0.037101675 0.06633022 0.42479867 0.2908034 -0.34416133 -0.5351878
0.002451625 -0.11827203 0.13610794 0.14691052 -0.33653453 0.18378448 0.8535894 0.19932723
-0.1696769 -0.08199898 -0.18933105 -0.29881108 -0.018715685 -0.20307964 -0.26943246 -0.3248003
-0.14963807 0.4505763 -0.15386811 -0.23457515 0.47834426 -0.16403274 -0.054033164 0.078630984
0.029527813 0.021906761 0.16203322 0.071194194 -0.22987817 -0.03376951 -0.21352334 -0.11319177
-0.6291107 -0.23789921 -0.37995914 -0.121838555 0.0035411532 -0.23592097 0.4242389 -0.4219322
-0.46560618 0.10663378 -0.12597568 -0.06720994 -0.23442824 -0.06952901 -0.3661374 0.2733722
0.23564164 -0.3723982 -0.14048922 0.23831242 -0.21153288 0.4034207 0.18608488 -0.2187378
0.15161432 0.20345156 -0.17349647 0.23663442 0.008846018 -0.37432945 0.18440524 -0.24531372
0.19806366 -0.33242413 0.06587576 -0.3835757 -0.09049259 -0.28952995 -0.65937126 -0.17225629
-0.36612788 0.37755817 0.20597833 -0.080715105 -0.30396178 0.47331247 0.1836401 -0.19484214
-0.23463786 -0.0942566 -0.26087785 0.2483106 0.62012327 0.31106234 0.25289115 -0.10441669
-0.61483157 0.0055207033 -0.47796473 0.24916615 0.084300935 -0.041778352 0.27127573 0.03246245
0.017760647 -0.08447106 -0.31275803 0.17587388 0.32318667 0.05023572 0.38423324 0.31382403

rnn.bias_hh_l0 f4 [256]
00000000: 8400 b8be ab55 5b3f da40 d9be 585b f5be
00000010: 59cb e33e 50b1 d33c 2051 9a3d 679d 2d3f
00000020: fc7b 9dbe dacb 933e ada1 0b3e 1719 babe
00000030: c094 3f3f d69b 1dbe b49c ddbd f004 c0be
00000040: bf56 8cbc f7d6 d2bd deeb 69be d7e7 bebe
00000050: 4eea 1c3f f722 193e 7811 a23d 0e82 80bd
00000060: 56dd 7b3e bcad 843d feb8 8a3e 1125 123f
00000070: 6b51 343e c710 313e 3d08 b8bd e5a2 fe3e
00000080: 6a68 173e 0e8c a7bd 7307 113e 2ebd 153f
00000090: 725b eabe 48f6 b8be 15ef 2f3e 39d5 92be
000000a0: 5c06 583e 8da1 f83e af4e dd3e b6a7 dbbc
000000b0: fcb4 ce3d 31a7 493e 1372 14be 9cf7 b63e
000000c0: c03d 39bd 140b 783e b72d abbe c30d 3bbe
000000d0: 3ad6 023f 09d6 51bd b3c0 15be 1951 9fbd
000000e0: 4b7a 88bc f1ad a53c 09d9 a1bd c445 a9bd
000000f0: 697e 2a3e b5d7 923e 72ab b1bc 4262 99be
00000100: 36c7 033f 6078 59be 72a9 ccbc 97dd 85be
00000110: fb16 b43e b452 703d b768 4abe 309c 05bf
00000120: f3cf 5e3e 70bb 6e3c f788 44bd 5e93 c9bd
00000130: 7278 f33d 91c2 b3bd 361a 643e c9f7 8cbd
00000140: baaf 3c3e bc56 c9bd 71d1 f83e eeb7 ed3d
00000150: b8fb 55be 6dd6 373e 8673 213e 7997 babe
00000160: 5ad3 103d 2291 c8be 89fb 7dbe f358 fe3c
00000170: 68b6 59bf e113 67be 0469 e73e b778 74be
00000180: 2435 083e d487 9abe 1640 38be 8dcf 0ebf
00000190: 00de ab3d 2b40 c8bd 82fa 22be d443 1dbf
000001a0: 067e 8b3b ba16 9c3e 658d c03d fdb9 3fbd
000001b0: 09c3 1e3e b7ff b03c bf8e f53e dd2a 023f
000001c0: 8dec 7fbe 1ea1 18be 89fa 42be c9e5 813e
000001d0: 3b62 b73c f9f3 80bd 872e 16bd 41f8 aabd
000001e0: 91ee 95be 7b35 9b3d bc93 8c3e 32bd 26bf
000001f0: 761f 8cbd 422f 4f3e 4de4 503e 88cb 3c3e
00000200: 7d56 46bd caff 973e 4fb9 fcbd 4b76 0cbd
00000210: 8cd8 ce3d 1139 82be 10ad 063f 2296 b4be
00000220: 4b82 a9bd 61b9 1cbd 9c89 eebe cf9b 3b3e
00000230: fce2 22bf 53fc 923d 14da 0dbe 5fa1 b93e
00000240: b3b0 273d 1616 1a3f 5f7f f6ba 792a f23b
00000250: 404c e73e 7548 a93e d34d cdbe 7c79 05bf
00000260: 2c16 2b3c bfc1 92bc bd24 033d b803 473e
00000270: d28e cabe 272f 1e3e d99b 513f ea36 2b3e
00000280: 7e14 0fbe 6d17 27bd 85d8 b7bd 8eee 94be
00000290: 9de7 03bc 9227 24be eee2 93be 78a2 bbbe
000002a0: ea3a 41be c0e0 113f 9b29 d1bd c0df 71be
000002b0: fc73 053f 8c4c 81be 1039 6ebd fa97 3d3d
000002c0: 78bd 8c3d 018f aa3c 9354 bb3d b6a7 0b3d
000002d0: 69ff 65be 05ba e6bc cd84 1ebe 1042 00be
000002e0: 385b 31bf 3c43 99be 33c4 f0be 277a 5abe
000002f0: e019 f83c a81f 8dbe a3b7 ee3e 5f6a d7be
00000300: 5a75 fabe d423 b23d e30c 7fbd a19a 18be
00000310: f9a1 9fbe 407e d4bd 8604 a8be bf36 9b3e
00000320: 56dc 463e 5d34 d9be 79f8 70be 9ef4 7c3e
00000330: b52f 4bbe 019c bb3e fdb3 933d efc2 47be
00000340: a1e4 043e 03fe 9e3e 7ca6 28be a8e3 783e
00000350: 2a38 8bbb b86f c0be a561 0a3e 71d5 8bbe
00000360: 90f6 633e 5104 9abe a91e f1bc 3eec d7be
00000370: 8a01 e1bd 5d1d 8fbe 8107 30bf e18c 13be
00000380: a057 bdbe 995a ba3e d4fd 8c3e e15f aabd
00000390: 81cf 9fbe 6e05 dd3e 2674 843e decd 44be
000003a0: 11ee 83be ed8e d9bd 21a0 37be 2360 2d3e
000003b0: 2ea6 1c3f 3fab c83e 5899 913e 5160 97bd
000003c0: 8f16 17bf 548b 883d ff3c f9be 34bf 2e3e
000003d0: bc71 903d 4df8 acbc bb43 943e dfd2 613d
000003e0: 28d6 8a3d e2df f6bd c21d 99be 1b9b 2b3e
000003f0: 63a7 ca3e eb2f db3b efe2 d53e a316 983e
-0.35937893 0.85677594 -0.4243229 -0.47921252 0.4449108 0.025841385 0.075350046 0.678183
-0.30758655 0.28866464 0.13635893 -0.36347267 0.7483635 -0.15391478 -0.108209044 -0.37503767
-0.017131208 -0.102949075 -0.22843882 -0.37286255 0.6129502 0.14954744 0.07913488 -0.06274806
0.24596152 0.0647845 0.27094263 0.5708781 0.17609183 0.17291556 -0.08985946 0.49733654
0.14785925 -0.0818101 0.14162998 0.5849179 -0.45772892 -0.36125398 0.17181046 -0.286783
0.21096176 0.48560753 0.43224093 -0.02681337 0.10093114 0.19692685 -0.14496641 0.35735786
-0.045224905 0.24222976 -0.33433315 -0.18266968 0.51108134 -0.05122951 -0.1462429 -0.0777914
-0.016659876 0.020224543 -0.07902724 -0.0826526 0.16649784 0.28680196 -0.021688197 -0.29957777
0.51475847 -0.21237326 -0.024983142 -0.26145622 0.35173783 0.05867262 -0.19766508 -0.5219145
0.21759014 0.014571056 -0.047982182 -0.09842561 0.118882075 -0.08777345 0.22275624 -0.06883199
0.1842641 -0.098309964 0.4859729 0.116073474 -0.20896804 0.1795289 0.15766725 -0.3644369
0.03535781 -0.39173228 -0.24802984 0.031048274 -0.85043955 -0.22566177 0.45197308 -0.23874174
0.13301522 -0.30181754 -0.17993197 -0.5578545 0.083919525 -0.09777864 -0.15915874 -0.6143162
0.0042569665 0.3048609 0.09401969 -0.04680823 0.15504088 0.02160631 0.4796047 0.50846654
-0.2499258 -0.14905211 -0.19040884 0.25370625 0.022385707 -0.06296534 -0.036665466 -0.08348132
-0.29283574 0.0757856 0.27456462 -0.6513244 -0.06841938 0.20232871 0.2039959 0.18437016
-0.048422325 0.2968734 -0.12340032 -0.0342925 0.10099897 -0.25434163 0.5260782 -0.35270792
-0.082768045 -0.03826273 -0.46589363 0.18321155 -0.636276 0.07177033 -0.13852721 0.3625593
0.040939998 0.6018995 -0.001880627 0.007390317 0.45175362 0.33063093 -0.40098438 -0.52138495
0.010442298 -0.017914651 0.03201746 0.19435012 -0.39562088 0.15447675 0.8187843 0.16720167
-0.13972661 -0.040793825 -0.08976845 -0.29088253 -0.008050826 -0.1603072 -0.2888407 -0.3664739
-0.1887013 0.56983566 -0.10213014 -0.2362051 0.52130103 -0.25253713 -0.058159888 0.046287514
0.06872076 0.020820143 0.091469906 0.03409549 -0.22460712 -0.028164873 -0.15480347 -0.12525201
-0.69279814 -0.29934108 -0.47024688 -0.2133566 0.030285776 -0.27563214 0.4662448 -0.42073342
-0.48917657 0.0869824 -0.06226815 -0.14902736 -0.31178263 -0.10375643 -0.3281595 0.30315205
0.19419989 -0.42422763 -0.23532285 0.24702689 -0.19842418 0.3664246 0.072120644 -0.19507955
0.1297784 0.3105317 -0.16469759 0.24305594 -0.0042486386 -0.37585235 0.13513811 -0.2731128
0.22262025 -0.30081418 -0.029433565 -0.42172426 -0.10986622 -0.2795209 -0.6876145 -0.1440921
-0.36980915 0.36397246 0.27537405 -0.08319069 -0.31213 0.43168205 0.25869864 -0.19219157
-0.25767568 -0.10622964 -0.17932178 0.16931204 0.6119107 0.3919315 0.28437304 -0.07391418
-0.59018797 0.066672 -0.4867935 0.17065126 0.07052943 -0.021114493 0.28957924 0.055132743
0.06779128 -0.12054421 -0.29905516 0.16758387 0.3958083 0.006689062 0.417747 0.2970477

decoder.weight f4 [62, 256]
00000000: 9064 c3bd af0b f3bd 700f c93e bab4 82be
00000010: 9e65 153e 6d6c 90be 619e 15bd a832 b13c
00000020: fa0e c1bd d114 b1bc fe2e e33e 8175 923e
00000030: a214 1f3e 69e1 063e 39bf 193f dc8e 8b3e
00000040: de55 1c3d bdf3 d7be 2da9 8dbe 70d9 443d
00000050: c254 a23d ef11 c7bd c040 1e3e 7065 fcbd
00000060: bc3a 82be c7ff 8dbe 07c6 dfbd 0c3b 8c3e
00000070: 5e59 6dbd 29f5 17bd 0e2e cebd 820c 143f
00000080: a86e 1dbe e579 173e a482 aa3e d9c6 803e
00000090: ec93 d2bd d27b 033f 868f 2ebe 5fc4 7cbd
000000a0: cb61 7cbd dd29 b33e d279 1f3e 8a2f 3c3e
000000b0: 9d7f a7bd 0eb0 4d3c 1b86 393d 280f 123e
000000c0: 172c 9cbe 269f 0f3e 10dc 753d 1d87 debe
000000d0: ebea af3e 7876 9fbe c927 073e 20a9 373e
000000e0: f655 33be 7044 023d e500 acbe 5e15 bd3d
000000f0: 5633 a1be 7978 d8bd 47ce 133e 5e97 94be
00000100: 36a1 f1bc 966b 21bf 27e3 fabd 831d c53e
00000110: 74a2 2ebe 5a7a 3ebe 94c5 923e 283b 36be
00000120: 8938 3dbd d331 51be 6506 81be 107b 47bd
00000130: ac26 ebbe 1bda 5a3e a41e 76be 0571 e9bd
00000140: d1ad 38be 6720 e93e 7c9c 093f 9b9e cf3d
00000150: 52f8 81be f5de ff3e 2d04 d43e 7a82 cb3d
00000160: 817d c4be e131 183d e907 c5be b85e e23e
00000170: eac1 84bc b4b7 aa3e 6b1a 193e 8fa7 02bf
00000180: 5de0 8fbe 2083 d53c 7ae8 52bd 5994 bfbe
00000190: d57b d33e 9baa b8be 3292 2c3e 2511 58be
000001a0: 718c 903e 3d77 6b3e b9ea c8bb b069 ab3e
000001b0: e47d 83be 21a8 35be c8ed 543e 0935 ec3e
000001c0: fa74 4f3e 9809 afbd eebf b1bd 4414 97bd
000001d0: 3dc0 853e cf85 c7be eb88 81be fd6d 43bd
000001e0: c0f4 723d 09ba 2bbe 1b54 083d d79f bc3e
000001f0: 1bdf eabd 2052 943e 2905 113e 7db3 9abe
00000200: 6e97 71bd bddc 50bc 6f34 4f3d cdee 823e
00000210: d116 a1be 2d55 ad3d f5dd f23d 5d55 7abe
00000220: 5396 753d fc95 9c3e 4a77 9cbd 9a82 86be
00000230: ab60 26be e5d2 653e b4a2 0ebf 5bff 763e
00000240: 396c b93e c6bc b8bd 8e60 22be c5ab ce3d
00000250: c947 8dbc 1e7e 05be 55c1 9dbe 62a2 88bd
00000260: afdd 27be daca 67be 43e6 ef3c 5be7 1c3e
00000270: fa82 7a3c b561 043f 4d50 893e 87e5 013e
00000280: b7a7 ce3e f22a ca3d 1e3e 993e e69e 99bc
00000290: a3d4 4ebe 0e73 1c3e 2fa9 093e 6f82 9ebd
000002a0: c1d4 e43a 44ca c8be 0013 bebd 5bbc c93d
000002b0: 6b97 7a3b f969 ae3d bb0b 1a3e 6f4d a23e
000002c0: e306 30be de25 a83c e8bc fc3d c48d 36be
000002d0: 97f7 803e 57af ddbd 8417 c2bc 7719 60bc
000002e0: 8666 aa3c 43db 263e 51de e3be d3fb 9f3d
000002f0: 0035 893d f8d9 e63e 0a55 563e 0395 bebe
00000300: 8e50 343d 3e05 903e 5f2a 03be 2a17 5cbd
00000310: ef69 203e 9e4f d73d fd7d 4bbe 9422 923e
00000320: d86f 8dbe d78d 85be d796 2a3e 57b0 bb3d
00000330: cb08 e23e 715c 6fbe 7cdb b6be 73d3 03be
00000340: acf6 42be 58d8 86be 9da7 b6bc 07d0 b03e
00000350: 9c48 273e a15d b63e 65d3 fcbd 5c02 0f3c
00000360: 92f2 91be 1d31 cd3e 1944 c8be 6a9b b9bd
00000370: 0373 1bbf a519 cbbe 0853 a9bc 317f 663d
00000380: cf40 a83e 5492 863e 6cc5 7f3d 3e6a 323e
00000390: 9a4a 85be 6223 543e 68b8 873e cd1a 15be
000003a0: ecc8 49bd 5f13 083f 5d24 4e3e b06f 543e
000003b0: 9c93 813e 4c0d 223f ac2f c93d 8c48 a8bd
000003c0: 1c38 383d 4dcc b5bd ac4d 19be 34d4 123d
000003d0: b1e8 403e d1a1 b4bc 9771 2cbe ca0b 5f3e
000003e0: d291 b4be ff4a ab3e 2793 f93e 9002 8cbc
000003f0: 9658 bfbe 5529 b0be 8037 2bbe 2a08 593e
-0.09540665 -0.11867463 0.3926959 -0.25528508 0.14589545 -0.28207722 -0.036527995 0.0216306
-0.09426685 -0.021616371 0.4437179 0.28605273 0.15535215 0.13171925 0.6005741 0.2725743
0.038167827 -0.42178145 -0.27668133 0.048058927 0.079263225 -0.097202174 0.15454388 -0.12324035
-0.25435436 -0.27734205 -0.109264426 0.273888 -0.057946555 -0.037099037 -0.10067378 0.57831585
-0.15374243 0.14792593 0.33302796 0.2515171 -0.1028212 0.5136081 -0.17046937 -0.06171071
-0.0616167 0.34992877 0.15573815 0.1837751 -0.08178637 0.012554182 0.04529391 0.14263594
-0.30502388 0.14025554 0.06002432 -0.43462458 0.34358916 -0.31145072 0.1319877 0.1793561
-0.1751326 0.03180355 -0.33594432 0.09232591 -0.3148448 -0.10569853 0.14434157 -0.29021734
-0.029495817 -0.6305479 -0.12250357 0.38499078 -0.17054158 -0.18601361 0.28666365 -0.17796004
-0.046196494 -0.20429163 -0.2520019 -0.048701346 -0.45927942 0.21372263 -0.24035126 -0.1139851
-0.18035056 0.45532534 0.537544 0.101376735 -0.25384766 0.4997479 0.41409436 0.09936996
-0.38377002 0.037156943 -0.38482597 0.4421289 -0.016205747 0.3334328 0.14951484 -0.51036924
-0.28100863 0.026063502 -0.05149124 -0.37417868 0.41305414 -0.36067662 0.16852644 -0.2110029
0.28232148 0.22994705 -0.0061314967 0.3347907 -0.25681984 -0.17739917 0.20793831 0.46134213
0.20259467 -0.08546752 -0.08679186 -0.07376912 0.2612323 -0.38969275 -0.25299773 -0.047712315
0.059315443 -0.16770186 0.033283334 0.36840698 -0.11468335 0.28968906 0.14162125 -0.30215064
-0.058982305 -0.012747941 0.050587114 0.25572816 -0.3146272 0.084635116 0.11858741 -0.24446626
0.059957813 0.3058318 -0.0763994 -0.26271516 -0.16247813 0.22443731 -0.55717015 0.24120848
0.3621538 -0.09020381 -0.15857145 0.10091356 -0.017246144 -0.13036391 -0.30811563 -0.06671597
-0.1639316 -0.22635975 0.029284602 0.1532263 0.015290016 0.5171159 0.26819077 0.12685214
0.4036233 0.098714724 0.29930204 -0.018752526 -0.20198302 0.15278265 0.13443445 -0.07739722
0.0017458425 -0.39216816 -0.09280968 0.09850379 0.0038237225 0.085163064 0.15043537 0.31699702
-0.17190127 0.020525869 0.123407185 -0.17827517 0.25188896 -0.10824459 -0.023692854 -0.013677946
0.02080084 0.16294579 -0.4450555 0.078117035 0.06699562 0.45088172 0.20930877 -0.37223062
0.044022135 0.28129 -0.12809132 -0.05373303 0.1566541 0.10513233 -0.1987228 0.28542006
-0.27624393 -0.26084778 0.16659103 0.091644935 0.44147334 -0.23375107 -0.35714328 -0.1287363
-0.1903941 -0.26336932 -0.022296721 0.34533712 0.16336292 0.35618308 -0.12345008 0.00872859
-0.2850538 0.40076533 -0.39114454 -0.09062846 -0.6072237 -0.39668003 -0.020669475 0.056273643
0.32861945 0.26283514 0.062444136 0.1742334 -0.2603348 0.20716622 0.26507878 -0.14561005
-0.04926388 0.5315456 0.20131059 0.2074573 0.2530793 0.6330154 0.09823546 -0.08216962
0.044975385 -0.08876858 -0.14971036 0.035846904 0.18838765 -0.022049816 -0.16840206 0.21781841
-0.35267502 0.33455655 0.4874508 -0.017091066 -0.37372273 -0.34406534 -0.1672039 0.2119452

decoder.bias f4 [62]
00000000: e4ca 3bbc d1ce 14bd 21ac f9bd da48 63bf
00000010: 0f2e bb3f 0f28 433f 5b9e afbf d117 a4bd
00000020: b694 2440 3e70 093f f923 6fbe 29ba dd3e
00000030: ec0f 17be 1282 a53d 9249 56bf c294 0abf
00000040: 9911 23bf 3164 37bf 9fca dfbe 1d0a 89be
00000050: 4ba0 2bc0 fdf0 c8bf 8704 3cbf 908d 48be
00000060: b230 1fbd 39d0 b3bc b1a4 93bf ce06 83bf
00000070: cfaf 1abf 3b6c 99be 13f8 913e 82b4 2ebf
00000080: 08be 7cbf 0fbf 20bf bd24 37bf b9b0 f3be
00000090: 549d cf3d b6e8 e13e 8ca9 3e3f 51e8 7cbe
000000a0: 5726 0cbe 5e6c 453f c64c 84bc f50f 89bd
000000b0: f2c2 bd3c 9f14 20c0 ca1f 03bd e46a b83e
000000c0: 9ade 023f c59a 6c3e a4e4 c0be 2d89 133e
000000d0: f11f 34c0 e356 4f3f 7dcf b73d 39fc 8cbf
000000e0: 9984 ed3c 1906 c3be 88ae 053f 5cd5 d8bf
000000f0: e075 c83e 13fb f1bf
-0.011461947 -0.036330048 -0.12191034 -0.8878304 1.4623431 0.76233 -1.3720201 -0.08012355
2.5715766 0.53686893 -0.23353566 0.4330609 -0.14752167 0.080814496 -0.8370601 -0.54133236
-0.63698727 -0.71637255 -0.43709275 -0.26765528 -2.6816585 -1.5698544 -0.7344441 -0.19585252
-0.0388648 -0.021949874 -1.1534635 -1.0236452 -0.6042451 -0.29965386 0.28509578 -0.68244183
-0.98727465 -0.6279153 -0.71540433 -0.47595766 0.1013743 0.44122857 0.7447746 -0.24697997
-0.136865 0.7711848 -0.01614989 -0.06692497 0.023164246 -2.5012586 -0.03201274 0.3601905
0.51120913 0.23105915 -0.3767444 0.14407797 -2.8144495 0.80991954 0.08975122 -1.1014472
0.028993892 -0.3809059 0.5221944 -1.6940112 0.3915243 -1.8904747
